weights.pth (torch_old, 28451 bytes, 6 tensors)

fc1.weight f4 [64, 37]
000000 9c 41 2b 3e fe cf 0a 3e 12 c6 03 3e 98 84 1f 3e
       0.16724247 0.13555905 0.12868527 0.15577924
000010 0d 19 41 b8 12 b6 bc 3e 38 d8 34 bf 2a 94 00 bf
       -4.6038116e-05 0.3685766 -0.70642424 -0.5022608
000020 75 22 e9 be 7c 84 df bf 72 34 db 3d bc 0b 40 3e
       -0.455341 -1.7462306 0.107033625 0.18754476
000030 21 b4 1d 3e 3f d4 63 3e 72 ab 98 3d f5 2b 5c 3d
       0.15400745 0.22248934 0.074545756 0.05375286
000040 69 83 62 3d 89 5e aa 3d 01 31 64 3d f5 b6 00 3d
       0.055301104 0.083188124 0.055710796 0.03142448
000050 f4 7c 50 bd f7 d8 09 3e b5 54 8b 3d 6b 45 10 3d
       -0.050900415 0.13461672 0.06803266 0.035222452
000060 43 79 20 bb 86 46 f7 3b 31 ca 27 3c 8d 6c a8 bc
       -0.002448634 0.007546249 0.010241077 -0.020559574
000070 26 8a b2 b9 03 1d 26 be 7c e1 a8 3d f1 6d 12 3d
       -0.00034053734 -0.16222005 0.08246133 0.03574938
000080 20 97 75 3e d4 e8 5b 3e ae 97 cc bb c2 37 f0 3b
       0.23983431 0.21475536 -0.0062436676 0.0073308656
000090 cb 36 34 3a 52 95 99 3a 24 f8 82 3e bf c2 79 be
       0.000687462 0.0011717475 0.2557994 -0.24390696
0000a0 37 28 ce bb 10 ba ce 3c 78 48 3e be 91 5e 96 3e
       -0.006291415 0.025235206 -0.18582332 0.29369023
0000b0 b2 b7 da 3d 6c ee ca 3d 8f fe 02 bd a7 09 9f 3d
       0.10679568 0.099087566 -0.031981047 0.07765513
0000c0 db bc f1 bd 72 9e c3 bc 55 c3 83 be 61 32 9d bd
       -0.118035994 -0.023879264 -0.25734964 -0.07675625
0000d0 64 00 0e be 28 38 f4 3d b7 9d 8e 3d d6 30 b5 bd
       -0.13867337 0.119247735 0.069636755 -0.08847205
0000e0 c8 63 d9 bd 39 0e 31 be 6e 70 24 3e d1 31 ce bd
       -0.10614735 -0.17290582 0.16058514 -0.100680955
0000f0 af 97 51 3e c7 cd ec 3d 66 08 2d bc f3 49 e4 bc
       0.20468019 0.115626864 -0.010561084 -0.027867293
000100 24 ad ac 3d 27 27 e5 be b4 a4 2b be df db 33 bd
       0.084314615 -0.44756433 -0.16762048 -0.043910857
000110 60 5b 1d be ea 47 7e bd 58 39 3f bd 06 83 00 bd
       -0.15366888 -0.0620803 -0.046685547 -0.031374954
000120 e8 f3 33 3e 37 55 0b bd e9 8a 44 be 32 b9 3d be
       0.17573512 -0.034016814 -0.19193615 -0.18527678
000130 7e 53 f4 bd 53 db 11 3e 26 0d d5 be cb b3 98 3d
       -0.11929987 0.14243822 -0.41611594 0.07456168
000140 ef c9 36 be 14 8d 2c 3e 95 64 9c be a2 dc 40 bf
       -0.17850469 0.16850692 -0.30545488 -0.7533666
000150 a9 ad 2d 3d 66 54 96 3c 15 79 0b 3e 9b e4 74 be
       0.042401943 0.018350791 0.13620408 -0.23915331
000160 b5 23 19 be 76 bd 86 3d 79 4c 6a bc fe 2b 96 3d
       -0.14955027 0.065791056 -0.014300459 0.073326096
000170 66 38 4c be 43 31 e8 3d be 92 4b be 08 09 4f 3e
       -0.1994339 0.11337521 -0.19880196 0.20218289
000180 bc 7b 0b 3c 3f aa e6 be 46 07 0f be e5 a6 77 bd
       0.008513387 -0.45051762 -0.13967618 -0.060461897
000190 5b ac 75 be e7 77 7d 3d c4 75 ba be 34 12 8a bd
       -0.2399153 0.061881926 -0.36417973 -0.06741753
0001a0 0f 92 21 3c 3b 22 66 be be 86 8c bd 64 71 13 be
       0.009861483 -0.22473995 -0.068616375 -0.14398724
0001b0 f7 05 87 bf 04 21 c0 bd 34 19 57 3c d2 55 8d 3d
       -1.0548695 -0.09381297 0.0131285675 0.069011346
0001c0 d5 7a 83 3d 82 f0 25 bd fc e3 ae bd 24 cb 10 bd
       0.06419913 -0.04051257 -0.08539578 -0.03534998
0001d0 ac ff ac 3e 61 8a d5 be f7 08 ff be 86 0f e7 be
       0.33788812 -0.41707137 -0.49811527 -0.4512903
0001e0 02 0f d8 bf f3 9d 67 3c a3 15 16 bc 37 42 ae bc
       -1.687958 0.014136779 -0.009160432 -0.021271808
0001f0 21 fb 08 bd 22 90 b9 bd bd 4f 90 bd 56 fb 42 3d
       -0.03344262 -0.09060694 -0.07046459 0.047602974
000200 29 d2 6d 3d 1e 1b 0f 3e a8 f6 e6 3d b9 62 d1 3d
       0.058061752 0.13975188 0.11277515 0.10223908
000210 72 0f 04 3d 78 3b b4 3d f1 a1 c1 bc 7b 71 2e bd
       0.032241292 0.08800405 -0.02363679 -0.042588692
000220 7f f5 e5 bd b3 9e 00 be ae 11 1a 3d 10 3b a3 3d
       -0.11228465 -0.12560539 0.037614517 0.0797025
000230 9a d7 a7 3e 45 61 5f bb 8d e9 6e 3d 66 26 c0 bc
       0.32781678 -0.0034085077 0.0583282 -0.02345581
000240 4e 29 51 3d 54 71 83 3e fd a8 0b bd ca 5f 57 3b
       0.05106478 0.256724 -0.034096707 0.0032863491
000250 65 de 7c 3d 7d 13 97 3d cc 7a 98 3d ed bb 13 bd
       0.06173553 0.07376764 0.07445297 -0.036067892
000260 1f 3a 37 bd 92 87 dd bd 9c 97 7d bc fe 2d 2b 3d
       -0.044733163 -0.108168736 -0.015478041 0.04179191
000270 c4 a1 56 3e cc 1b a4 3e 3f bb 0d 3d 95 66 a1 3d
       0.20960146 0.32052457 0.0346024 0.07880894
000280 24 1d ee 3d 2b af 12 3e 9d 02 ea 3d 99 12 1c bd
       0.11626652 0.14324634 0.1142628 -0.038103674
000290 81 f4 fc 3a 02 7f 3d 3c f5 21 15 3d da c3 27 3e
       0.0019298942 0.011565926 0.036409337 0.16383305
0002a0 0a c7 18 3d c7 bf ce 3c b1 4d 82 3d cf 93 93 ba
       0.037299193 0.025237931 0.06362475 -0.001125926
0002b0 20 73 cb bd 15 65 da bd c7 80 59 bc c4 e6 1b bd
       -0.09934068 -0.10663811 -0.013275332 -0.038061872
0002c0 c0 bd 00 3e 76 98 65 3e 09 ea f3 3e ea 97 0c bf
       0.12572384 0.2242144 0.47639492 -0.549193
0002d0 e3 b4 0d bf b3 87 e2 be 9f 0b 0d c0 12 53 b0 bc
       -0.55354136 -0.44244155 -2.2038343 -0.021523986
0002e0 d5 60 ce bb 8b 15 6b 3d fe 5d 08 3d e0 e5 6f ba
       -0.0062981644 0.05739359 0.033292763 -0.00091513805
0002f0 e6 ae 18 bc d2 27 77 bd 83 01 52 bd 9e a9 6b 3d
       -0.009319043 -0.06034071 -0.051270973 0.057534806
000300 c0 d5 40 3e 55 68 f2 3d e0 71 c0 bd e4 43 2e be
       0.18831539 0.11836306 -0.0939672 -0.17018086
000310 10 1d d6 3d 88 f7 b7 3d d0 42 9f 3d 9b ab af bd
       0.10454762 0.0898276 0.07776415 -0.08577653
000320 0e b8 ca b9 00 5f ab bd 43 56 64 bb da 5d fb 3d
       -0.00038665574 -0.08367729 -0.0034841455 0.1227376
000330 9f a6 00 3e 50 81 30 be 41 53 8b 3d f4 5c 47 be
       0.12563561 -0.17236829 0.06802989 -0.19469053
000340 aa 09 23 3d 02 6f cc 3d 63 7c b0 bd 97 24 4f 3e
       0.03980414 0.099821106 -0.08617475 0.20228802
000350 32 3e d4 3a 9f 67 a6 3d da 42 0d 3e 5c 03 b2 3e
       0.0016192852 0.08125233 0.13795033 0.34768188
000360 25 22 04 bf 94 8f 07 be a7 2c 82 be d7 af cd bf
       -0.516146 -0.13238364 -0.25424692 -1.6069287
000370 98 eb 3d bd 49 ce 19 bc 76 a8 ae 3c 7d 17 97 3d
       -0.046367258 -0.009387561 0.021320563 0.07377527
000380 0b 94 61 bc d0 03 ad 3d 48 93 ec 3c f5 62 b4 3d
       -0.013768206 0.08447993 0.028878823 0.08807937
000390 38 1c fa 3d 0a 9f d9 bc 84 35 fa bd ae 98 2b be
       0.122124135 -0.026565094 -0.122172385 -0.16757461
0003a0 a7 69 0a 3e 5b b0 47 3e fd a2 17 3e b2 56 30 3e
       0.13516866 0.19500868 0.14808269 0.17220572
0003b0 2f 26 27 bd 2b 51 d8 bc 68 1b 1b 3c 61 79 ab 3a
       -0.0408079 -0.026405891 0.009466983 0.0013082438
0003c0 22 a4 9e 3d cc 67 ae 3c b8 db 3c bc f2 a0 46 bc
       0.077461496 0.021289729 -0.011526994 -0.012123333
0003d0 ea 5f 51 3d 01 dc 1c bc 6f a5 fd ba e7 1a fd 3d
       0.05111686 -0.009573937 -0.0019351671 0.12358647
0003e0 82 03 c6 3d f1 52 22 3e 4c c1 f5 3d c3 fd 82 bc
       0.09668638 0.15851952 0.11999759 -0.015990144
0003f0 75 b8 b9 3e 4b a6 44 bf 5f 9f 06 bf e4 a8 35 bf
       0.36273542 -0.7681624 -0.5258693 -0.7096083

fc1.bias f4 [64]
000000 6d 16 9e 3c 62 fa 2e 3d 42 25 ff 3d 58 a6 81 3d
       0.019297803 0.042719252 0.12458278 0.06330556
000010 fd db ad bd f1 0e 82 bd 3a 59 d1 3d 1c ee 09 3d
       -0.08489225 -0.06350506 0.10222097 0.033674344
000020 6a 0c 60 be 5d 80 82 3c 2c 83 d7 bd a3 f0 71 3c
       -0.21879736 0.015930349 -0.10523066 0.014766845
000030 bd c4 18 be 79 a8 2a be 6c ac 3a be f7 6a 0d be
       -0.149188 -0.1666583 -0.18229836 -0.13810335
000040 36 a1 a1 3c 6a 4e b7 3d 82 9f b2 3e 3d d5 89 bd
       0.019730192 0.08950503 0.3488732 -0.06730125
000050 b0 33 5c 3d 2e b2 62 b7 73 d4 0b bd 77 f0 9a bd
       0.05376023 -1.3512135e-05 -0.034138154 -0.07565396
000060 9e 20 91 bd 2c 0f e5 bd 24 47 e6 bd 7a bc 51 be
       -0.07086299 -0.111845344 -0.11244038 -0.20482054
000070 75 2c 2a 3e b1 61 79 3d d3 a2 30 be 26 ce f6 bd
       0.16618522 0.06088418 -0.17249613 -0.120510384
000080 86 b9 fe bd aa 3b a0 bd 4c ba 9d 3d 9a c1 79 3d
       -0.124377295 -0.0782388 0.07701549 0.06097565
000090 b4 ad c7 3d 36 e7 ab bc bf 23 b4 3e 1e ea e6 bd
       0.09749928 -0.020984273 0.35183522 -0.11275123
0000a0 35 5f 19 be 46 08 8a bd 5a b9 f5 bd d9 4b 19 bb
       -0.14977725 -0.06739859 -0.11998244 -0.0023391156
0000b0 51 38 ba 3c a8 ad 2c be 41 20 54 be 40 da 99 3d
       0.022731932 -0.1686312 -0.20715429 0.07512331
0000c0 85 3a c7 bd 65 ea 4b 3d e5 fd 4d bd d1 71 8e 3d
       -0.097279586 0.049784083 -0.05029096 0.069553025
0000d0 42 7d 00 be 18 05 b8 bd 31 99 8d bc 80 64 8c 3d
       -0.12547782 -0.089853466 -0.017284961 0.06855106
0000e0 7b 4e 11 3e d2 b7 64 3d cd 96 99 3c e7 4c 4c 3d
       0.14190094 0.055839367 0.018748665 0.049878027
0000f0 ea e1 a9 3d 71 bb 91 bc 5e 8c de 3d 78 ca 6e be
       0.08295043 -0.017789574 0.10866617 -0.23319423

fc2.weight f4 [64, 64]
000000 60 5a a7 3d c4 17 f0 3d c9 f3 f7 bd 57 73 10 3e
       0.081715345 0.11723283 -0.12107045 0.14106499
000010 a7 a3 24 3e b7 c8 fb 3b 98 98 93 3e f8 b5 43 3d
       0.16078053 0.007683839 0.28827357 0.04778096
000020 a2 c5 e3 bc 01 72 c5 3d ca f7 80 3d a5 8c e1 bb
       -0.0278042 0.09640885 0.06297262 -0.006883221
000030 c0 19 47 3d 48 85 43 be 34 df 8c 3c a8 dc 82 3c
       0.04860854 -0.19093812 0.017196275 0.015974358
000040 18 4c dc 3d 61 e7 a0 3d 56 16 4c 3e 3f 16 0a 3e
       0.10756701 0.07856632 0.19930395 0.13485049
000050 e7 d1 0f 3e 5a 90 d0 3d 60 c1 cd 3d ad 42 83 bd
       0.14044915 0.10183783 0.10046649 -0.06409202
000060 c7 e0 89 3d 20 c5 15 3e f5 6d 10 3e c9 59 bd bd
       0.06732326 0.14625978 0.14104445 -0.09245641
000070 35 f3 20 3e 3b 00 e8 3d 75 78 af 3d d3 4c fd 3d
       0.15717776 0.11328169 0.08567897 0.12368169
000080 76 1c 5b 3d 4b 4e 39 3d 3c d3 50 3e 70 43 45 bd
       0.05349394 0.04524068 0.2039308 -0.048160017
000090 2c 67 07 3c 8d 09 2f bd 0d 87 60 3e 51 48 21 bd
       0.008264344 -0.042733718 0.21926518 -0.039375607
0000a0 46 c4 25 3c 68 5e ee 3d f2 91 23 ba 6e 59 4f be
       0.010117596 0.116391 -0.0006239704 -0.20248958
0000b0 24 35 93 3d 97 01 8b 3d cb 92 0b 3d 33 84 2b 3d
       0.0718787 0.067874126 0.03407554 0.041874122
0000c0 84 09 7a bd 7d 4d 40 3d 87 5a ce 3d 31 a0 2e be
       -0.06104423 0.0469489 0.100758605 -0.17053296
0000d0 a1 a7 9b 3d 50 29 02 3c 25 22 dd be 6f a4 1d 3d
       0.07600332 0.00794442 -0.43190113 0.038486894
0000e0 3d 76 37 3e f0 ec 7e 3d b4 06 df b9 b6 20 48 3e
       0.17916198 0.06223768 -0.0004253887 0.19543728
0000f0 14 b3 2c 3e ce 96 a9 3d a1 41 36 3e 13 c5 df bb
       0.16865188 0.08280717 0.17798473 -0.006828913
000100 88 4d a3 bd 3c ac 84 bd c1 81 9d 3d 26 5c fe bd
       -0.07973772 -0.064781636 0.07690764 -0.1241992
000110 fb 8f 12 bf d0 b3 c5 be 35 a8 8e be d8 2f 09 3f
       -0.57250947 -0.3861375 -0.27862707 0.5358863
000120 e4 06 b2 3d 9b 66 92 bd 91 80 56 be f6 f9 53 bc
       0.086927205 -0.07148477 -0.20947482 -0.012938013
000130 f6 d9 db 3d c4 f6 dc 3d 48 94 3b be 8d 31 01 3d
       0.10734932 0.10789254 -0.18318284 0.031541396
000140 2d 3b 84 bd 5d 8b 7e 3d 6b bb 1d 3d bc 8d b2 bd
       -0.064565994 0.062144626 0.038508814 -0.0871844
000150 a0 56 09 bb 7e f2 0a bd f6 56 37 3f b2 2b 5c 3d
       -0.0020956174 -0.033922665 0.71617067 0.05375261
000160 f8 ab de bd 06 9e 82 bd 22 48 27 bd 3d 9a c5 3c
       -0.10872644 -0.06377797 -0.040840276 0.024121398
000170 ce 7d 25 bd 4d 75 81 bd 21 52 02 be 05 ec eb bd
       -0.04040318 -0.063212015 -0.12726642 -0.115196265
000180 f7 fe e1 bd 1a be 14 3d 52 83 34 3d 4d 06 0e bd
       -0.11034959 0.036314107 0.04407055 -0.034673978
000190 18 32 11 bc 43 25 aa 3d ca 9c 4d bc f8 28 4d 3d
       -0.008862041 0.08307888 -0.012549588 0.0500879
0001a0 f6 eb 8e bd f8 79 6f bd 9c b0 64 3e 48 5b 28 bd
       -0.069786 -0.058465928 0.22332996 -0.041102678
0001b0 c2 6e a4 3d dd 7f c5 3d 3c 68 78 be de ca e3 bd
       0.08028938 0.096435286 -0.24258512 -0.11122678
0001c0 b9 a6 07 3e f0 db c4 bd 03 f6 bd 3c 46 f0 32 3d
       0.13247193 -0.09612262 0.023188597 0.043686174
0001d0 44 17 19 be 93 6d 10 3d 9b 12 1f 3e 55 eb ca bd
       -0.14950281 0.035260748 0.15534441 -0.09908167
0001e0 76 2c 4b be 97 17 b4 bd 84 17 c7 bb 11 50 4f be
       -0.19841179 -0.08793562 -0.0060758013 -0.20245387
0001f0 7d 6e b4 bd 7b 83 90 3e c8 7d 16 bf e0 c5 51 be
       -0.088101365 0.28225312 -0.58785677 -0.2048564
000200 17 7e d1 3d 5a 26 4a 3d 5c 3a 67 3b 34 e1 7c 3d
       0.10229128 0.04935298 0.0035282588 0.061738208
000210 ef 40 f2 3d 33 c2 98 bc 5e 96 0a 3e 63 54 91 3e
       0.11828791 -0.018647289 0.13533923 0.28384694
000220 85 17 7c bc 39 86 6f 3d b7 b5 b8 3b 30 97 04 3e
       -0.015386467 0.058477614 0.0056368965 0.12948298
000230 8a 42 eb bc 14 c2 a2 3c d0 41 ee 3d 0f b8 14 be
       -0.028718252 0.019867934 0.116336465 -0.14523338
000240 4f bf 54 3b 7d d1 18 bd e4 86 9f 3d db d1 02 3d
       0.0032462662 -0.03730916 0.077894 0.031938415
000250 9e db 64 3d f2 5d 24 3d 61 de 9b 3e 55 a8 bf bd
       0.055873506 0.040128656 0.304431 -0.09358279
000260 c2 33 d4 bd a8 5a 23 3d fe 5e a9 3d 3e 21 a4 bb
       -0.103614345 0.03988138 0.082700714 -0.0050088456
000270 a5 17 07 3e 87 59 4c 3d 3a f3 3d bd 05 1a 66 bc
       0.13192613 0.049890067 -0.046374537 -0.0140442895
000280 a5 dc 6f 3d 3a 31 d3 3d 22 e3 16 3e af f0 e8 3c
       0.058560032 0.103121236 0.14735082 0.02843508
000290 40 7e c6 3c 8f 9f 4a 3d a4 cf 9a 3e ee c4 1c bc
       0.024230123 0.049468573 0.30236542 -0.009568436
0002a0 e4 dd 1d bd 0e 58 8d bb 75 2f 10 3d 57 1c 18 bd
       -0.03854169 -0.0043134755 0.03520151 -0.037136402
0002b0 a0 2f d4 bd b0 71 d1 3d 8f 20 98 3d 9a 82 d7 3d
       -0.10360646 0.10226762 0.07428085 0.10522957
0002c0 34 09 51 bd 3d 72 dd b8 ea b2 f1 3d fd 0a 10 be
       -0.051034167 -0.0001055938 0.11801703 -0.14066692
0002d0 16 3a 2c 3e 76 d0 4a bd c9 20 e1 be 81 2f b3 bb
       0.16819033 -0.04951521 -0.43970326 -0.0054683094
0002e0 ee 22 0b 3e bd b7 9b 3d f8 5d 39 3d a2 d7 61 bd
       0.13587543 0.07603405 0.04525563 -0.055137284
0002f0 65 b8 5d 3d 47 a9 3f 3b d1 57 8b 3d 50 6b 9d 3c
       0.05413093 0.0029245184 0.06803859 0.01921621
000300 98 3f 09 be 67 b9 94 be d7 63 24 bd e7 3d f0 bd
       -0.13403165 -0.290477 -0.040134277 -0.11730557
000310 d2 59 0c be ad 9c 1e bd c1 b9 5f be 44 6e e4 be
       -0.13706139 -0.038723636 -0.21848203 -0.44615376
000320 ff 68 5b bd e8 4f 1f be b6 f3 a3 3d 72 4f 16 3e
       -0.05356693 -0.15557826 0.080054685 0.14678743
000330 1a ce e9 3c 09 6a d3 3d 28 9c 41 3d 7a bf 2c bd
       0.02854066 0.10322959 0.047268063 -0.042174794
000340 dd 51 13 bf bc cd 28 3e 07 f0 a6 3d 80 fd e4 3e
       -0.5754679 0.16484731 0.0815125 0.44724655
000350 9b ff 0e 3e 13 66 8e 3d 73 ce 53 be e8 d0 50 be
       0.13964693 0.06953063 -0.20684223 -0.20392191
000360 50 d1 37 3d 34 86 4c 3d 2c 29 89 bd b5 62 1e be
       0.04487735 0.049932674 -0.06697306 -0.15467341
000370 e6 ad 47 3c 20 e6 9e bd 11 a6 80 be 05 6d 31 bd
       0.012187457 -0.077587366 -0.251267 -0.04331686
000380 92 94 50 be 88 b0 46 3e 16 89 3d 3e 22 ee 6a bd
       -0.20369175 0.19403279 0.18509325 -0.057356007
000390 a4 cd 82 3d 77 84 9e bc 0b a6 08 be fd b9 c8 bb
       0.06386879 -0.019350274 -0.1334459 -0.006125687
0003a0 72 34 39 bd 62 b8 07 be 70 df b3 be bc 08 ad bd
       -0.04521603 -0.1325393 -0.35131407 -0.084489316
0003b0 1f 30 60 3e 9d 90 c8 bd 0f 76 5a 3d 17 2f 15 be
       0.21893357 -0.09793208 0.053335246 -0.14568745
0003c0 61 57 98 be d5 77 73 bd e4 eb 14 3e 1a 44 5d 3d
       -0.29754165 -0.059440453 0.1454311 0.054020025
0003d0 02 2d d8 bd 3c 26 f0 bc 48 b7 9b 3e 34 82 30 be
       -0.105554596 -0.029315107 0.3041327 -0.17237169
0003e0 f5 3d fa bd 26 f1 2f be c3 1c 0e 3e c5 05 a8 bc
       -0.122188486 -0.17181835 0.13878159 -0.020510564
0003f0 bb 2d dc 3c 64 a0 4f 3f 3d 26 02 bd 7d c6 e8 bd
       0.026877275 0.8110411 -0.031774748 -0.11365984

fc2.bias f4 [64]
000000 ac e6 15 3f db 42 d1 3c f8 dd f0 3e 93 8f d7 bd
       0.585551 0.025544574 0.4704435 -0.105254315
000010 12 1c 3e bd c1 35 07 bd a1 ff 05 3e 97 30 fb 3c
       -0.04641349 -0.033010248 0.13085796 0.030662818
000020 21 c5 90 3e b9 12 80 3c 39 1b bf 3d bf 5a 45 bd
       0.28275397 0.015633928 0.09331364 -0.048182245
000030 39 5b 41 bc 81 9e a4 3d 06 29 a3 bd ff 91 2d bc
       -0.011801534 0.08038045 -0.07966809 -0.01059389
000040 7b 96 a6 bd 28 f9 1e 3e a9 bc 59 3e ad 53 05 3e
       -0.081341706 0.15524733 0.21263374 0.13020201
000050 cc 29 82 be 41 9e 3c 3d 0f a3 c9 bd ed 7b 16 3f
       -0.25422513 0.04604936 -0.09845554 0.58782846
000060 76 73 0f 3f 39 da fb bd 8d 82 1a bd d9 74 e3 3d
       0.56035554 -0.12297482 -0.03772216 0.11106271
000070 f4 98 c5 bd b7 5b 60 be f5 e5 e2 3d 4f 67 f4 bd
       -0.09648314 -0.21909986 0.11079017 -0.11933767
000080 03 eb d0 bd 5e bc 02 3e 44 63 a7 3c 53 18 c4 bd
       -0.10201075 0.12767169 0.020433076 -0.09574952
000090 9a 4d 25 3e bf bb 1a 3e b4 02 16 3e 2e 9f 3b 3e
       0.16142884 0.15110682 0.14649469 0.18322441
0000a0 9a 1f 82 3e c3 69 26 3c 5a 09 d8 bd 0e c4 11 3f
       0.25414735 0.0101570515 -0.10548659 0.5693978
0000b0 38 e0 ce 3e a7 0d 16 3f 49 2a 45 3e fe c7 8c 3e
       0.4040544 0.5861458 0.19254412 0.27496332
0000c0 3a ef 4f 3d 38 c2 12 3c c4 82 43 be 50 f8 d1 3d
       0.050765254 0.008957438 -0.19092852 0.1025244
0000d0 ca 08 84 be 79 bb 57 bd 48 fe e3 3d fa a9 1c bd
       -0.25787956 -0.052669022 0.11132485 -0.03824804
0000e0 8e 8e 19 bd b1 d0 57 3d 58 71 33 3e 4a 82 85 bd
       -0.037489466 0.052689258 0.17523706 -0.06518991
0000f0 66 66 4c 3e 9f fa 20 be 56 b6 4c bd b8 40 7f 3e
       0.19960937 -0.15720604 -0.049978577 0.24927032

fc3.weight f4 [4, 64]
000000 bf 34 6c 3e 35 b6 81 3e 32 5b 44 3e 81 62 2d bb
       0.23066996 0.25334325 0.19175413 -0.0026456418
000010 fc f7 c3 3e 4a 42 db bd fb 51 54 3e 84 f2 30 3e
       0.38275135 -0.10706003 0.20734398 0.17280012
000020 91 4e 01 3e 44 f6 4e 3e b0 c6 ab 3a 1b d3 72 be
       0.12627627 0.2021113 0.0013105478 -0.23713343
000030 69 7d 53 be 8b 62 1c be 11 26 c6 be 84 1c 90 3e
       -0.20653309 -0.15271966 -0.38700917 0.28146756
000040 3d 93 c3 3d 3f be af 3d d9 2f 9a 3e 4e 01 6a 3e
       0.09549568 0.085812084 0.3011463 0.2285206
000050 1d dd 3c be 09 4a b8 3d fd f3 44 be 49 15 66 3e
       -0.18443723 0.08998496 -0.19233699 0.22469057
000060 17 62 16 3e 94 ed a7 3c f5 27 17 3d 64 c1 05 3e
       0.14685856 0.020499028 0.03690334 0.13062054
000070 a6 a2 5b be 48 8d 0a be 55 af 43 bf f0 ee af 3c
       -0.21448764 -0.13530457 -0.7643941 0.021476239
000080 59 c5 21 be e6 66 3d 3e b5 d8 e0 bd 6f ba 58 be
       -0.15797938 0.18496284 -0.109788336 -0.21164869
000090 27 93 8e 3e 3d d2 8d 3e f0 50 81 3e 2b ad ac 3e
       0.27846643 0.27699462 0.25257063 0.33725867
0000a0 5c d8 21 3e 86 4f 84 3e d5 db be bd 7b 6d 73 3e
       0.15805191 0.25841922 -0.093192734 0.23772232
0000b0 44 61 64 3e 57 3e 42 3e ba fe 9b 3e 40 f7 93 3e
       0.22302729 0.18969093 0.30467778 0.28899574
0000c0 85 af 1f 3c 35 f7 15 be 0f 97 90 be 11 74 b1 3d
       0.009746437 -0.14645083 -0.2824025 0.08664716
0000d0 3e 5e 9c be e3 5a 26 bd 18 e8 e1 3e 40 e4 cb 3e
       -0.3054065 -0.04061402 0.44122386 0.39822578
0000e0 04 ea b4 3d bf 7c a4 3e c4 ea 15 3e b6 cf d4 bc
       0.088336974 0.32126424 0.14640337 -0.02597795
0000f0 e3 00 b6 3d 58 71 e4 be 6e 80 df 3e 4c 34 b2 3d
       0.08886888 -0.44617724 0.43652672 0.08701381
000100 4f 6e 84 3e e5 96 44 3e 09 c3 2e 3e eb 03 65 3e
       0.2586541 0.19198187 0.17066588 0.22364776
000110 b2 1a 04 3f 1f c9 01 3d ea 57 45 3e 58 65 05 3e
       0.51603234 0.031685945 0.19271818 0.13026941
000120 b5 03 db 3d cc 83 06 3f 7d 43 ab bc f0 e7 3f be
       0.106940664 0.52544856 -0.020906204 -0.18740821
000130 14 aa 1f be 29 d2 1b be 5c 9c 65 3d 70 9d 54 3e
       -0.15592223 -0.15216888 0.05605732 0.20763183
000140 f5 0e b0 3d 19 88 7e 3d d8 64 47 3e d3 8f 6e 3e
       0.08596603 0.06214151 0.19472063 0.23297052
000150 1d c5 70 bd b4 40 15 3e 73 e8 28 bf f5 26 25 3e
       -0.058781732 0.14575464 -0.6597969 0.16128142
000160 53 ac 56 3e df 12 c1 3d 7a d6 e5 3c 83 9f 02 3e
       0.20964174 0.094274275 0.028056372 0.12756161
000170 17 c5 77 bd 7f ed ae bd f4 9b 97 3d 8a 1f 14 3c
       -0.060490694 -0.085413925 0.074027926 0.009040723
000180 23 e8 6a be 3d b4 a1 3d b4 9a eb 3d ec 9f 9d 3d
       -0.22940116 0.07895706 0.11504117 0.07696518
000190 23 51 80 3e b1 a7 89 3e 6b 4a 8d 3e d6 ef 96 3e
       0.25061902 0.2688575 0.2759584 0.29479855
0001a0 b5 e2 0a 3d 71 3c c0 3e c3 ac a7 3e 2f 6d 67 3e
       0.03390761 0.37546113 0.32748994 0.22600244
0001b0 c4 43 df 3d 2b 96 4e 3e f7 c6 6f 3e 94 4f 3b 3e
       0.10901597 0.20174472 0.23415743 0.18292075
0001c0 b7 26 0b be 97 81 e2 3c 4d 36 2b be aa 16 25 3e
       -0.13588987 0.027649684 -0.16719933 0.16121927
0001d0 a6 57 ae bd 2e 88 34 be 6e 15 97 3e 34 02 f7 3e
       -0.08512811 -0.17630073 0.29508537 0.48243868
0001e0 24 09 38 bd b6 30 b3 3e ca 9b 73 3d a4 00 48 bc
       -0.044930592 0.349981 0.059474744 -0.012207184
0001f0 93 cf 0c 3e 3d 54 21 3b 63 fa bb 3e 7c 18 03 3e
       0.13751058 0.002461686 0.36714467 0.12802309
000200 92 9b 45 3e d4 11 81 3e 3f c5 19 3e b2 f2 8a be
       0.19297627 0.25208914 0.1501665 -0.27138287
000210 1b 9b 94 3c 1b 92 0c 3e 83 f3 82 3e 3d a2 24 bc
       0.018140366 0.1372761 0.2557641 -0.010048446
000220 f4 d3 7f 3d b1 d4 f1 3e b3 7d 1b 3e 02 44 06 be
       0.062457994 0.47232583 0.15184669 -0.1311188
000230 50 7b aa be 88 31 f2 be 52 ef b3 3e 9b 08 b5 3d
       -0.33297205 -0.47303414 0.35143524 0.08839532
000240 0a 7a a3 3e 36 83 15 3e 07 3b 85 3e 07 78 a6 3d
       0.31929046 0.14600834 0.26021597 0.08128362
000250 4e 4c 8b 3c 53 4b 0f bc 55 b2 76 be 5b ac 73 3e
       0.017004158 -0.008745986 -0.24091466 0.23796217
000260 e1 18 37 3e b5 8a eb 3e 53 e4 bb 3e 43 8b 5a 3e
       0.17880584 0.46004263 0.36697635 0.21342187
000270 89 fd cd 3c 80 40 27 be 9a 65 bb be 42 44 b3 bd
       0.025145309 -0.16333199 -0.36600953 -0.087532535
000280 75 b3 ff 3c b1 58 1e 3b b6 41 b6 be 4d 8f 04 3e
       0.031213501 0.002416175 -0.35597008 0.1294529
000290 65 5e b0 3c 73 d8 c6 3d 19 95 da 3e 5d c8 25 3c
       0.021529386 0.09709253 0.42691877 0.010118571
0002a0 76 14 28 3c 0f ea ae 3e 65 4b 23 3e 17 33 5e 3e
       0.0102587845 0.34162948 0.1594673 0.21699177
0002b0 44 1c 65 3e 1e 34 70 3e 18 d4 37 3e f1 62 65 3e
       0.22374064 0.23457381 0.17952001 0.22401024
0002c0 77 21 ea bc 88 a3 66 bd 8b f5 ee 3b d2 bf af bb
       -0.02858041 -0.0563083 0.0072924546 -0.005363443
0002d0 1d 65 9f be 88 5d 8c be f6 ba b5 3e f7 96 ce 3e
       -0.3113183 -0.2741511 0.35494202 0.40349552
0002e0 4d 44 00 bb a5 e2 86 3e 6a 6e 08 3e 2d 4b 9f 3e
       -0.001957196 0.2634479 0.1332337 0.31112042
0002f0 47 2b 7c 3e e4 05 3d 3e f9 24 5c 3e 73 55 31 3e
       0.24625884 0.18459278 0.21498479 0.17317753
000300 a3 bc 21 3e 6d 62 5e 3e 5c 46 09 3e c4 d7 2c 3f
       0.15794615 0.21717234 0.13405746 0.6751673
000310 17 9b d3 3e 71 eb 71 3e 35 4c 40 3d cc a6 7e 3e
       0.41329262 0.2362497 0.046947677 0.24868315
000320 6d df b2 3d e7 02 54 be 18 a3 e2 3d eb 7d b0 be
       0.08734021 -0.20704232 0.11066264 -0.34471068
000330 2e 03 f1 bd 14 ad 15 bf 0e 48 92 3e ed c5 00 3f
       -0.117681846 -0.5846722 0.28570598 0.5030201
000340 52 73 52 3e 5a 51 86 3c d9 2a fc 3d 0c 99 44 3e
       0.20551804 0.016396213 0.1231286 0.19199008
000350 1a ab 08 3e 53 c8 21 bd d2 2b c4 3c e0 6c 88 3e
       0.1334652 -0.039497685 0.023946676 0.26645565
000360 f1 62 34 3e 0c 3a 10 3f 1b 9b 0e bd 70 30 3b 3e
       0.17615868 0.5633857 -0.03481589 0.18280196
000370 08 74 0d 3c 31 de 3d be bd cb 90 be 98 92 7e bd
       0.008633621 -0.1854179 -0.2828044 -0.06215152
000380 4f 57 04 3d 6d 97 dd 3c 3b 8f 85 3b df 9c ec 3d
       0.032309826 0.027049745 0.0040759123 0.11553358
000390 a1 0d ba 3d 56 84 6d 3e 5a 2a 36 3e a1 f7 e5 bc
       0.09084631 0.23195013 0.17789593 -0.02807218
0003a0 2e 03 23 3e 92 fd e7 3d 34 fe 54 3e d0 86 35 3e
       0.15919182 0.113276616 0.20800096 0.17727208
0003b0 08 60 2f 3e 2f 58 96 3e af d4 24 3e a7 01 93 3e
       0.17126477 0.29364154 0.16096757 0.28712198
0003c0 7a 4a 57 bf f0 6d 2f 3e 18 0a ab be 8b a4 1a 3e
       -0.8409802 0.17131782 -0.33406138 0.1510183
0003d0 e1 d9 da bd 57 86 4e be 0d d9 f3 3e cc 79 23 be
       -0.10686088 -0.20168434 0.47626534 -0.1596443
0003e0 d0 27 fb 3e 95 9d a9 3e c9 54 9c 3e fb 03 9c 3e
       0.49053812 0.33128038 0.30533436 0.30471787
0003f0 0c 45 d2 3d 2d b8 58 be cf 13 b6 3e fa cd 44 3e
       0.10267076 -0.21164007 0.35561988 0.19219199

fc3.bias f4 [4]
000000 c9 1e 94 3e df 33 dc 3e c2 12 b3 3e c3 c4 b9 3e
       0.28929737 0.43008325 0.3497525 0.3628293
